…
2019-07-03 14:56:49.153047: I tensorflow/core/common_runtime/gpu/gpu_device.cc:1097] Created TensorFlow device (/job:localhost/replica:0/task:0/device:GPU:0 with 10168 MB memory) -> physical GPU (device: 0, name: GeForce RTX 2080 Ti, pci bus id: 0000:af:00.0, compute capability: 7.5)
x_train shape: (50000, 32, 32, 3)
50000 train samples
5000 validation samples
5000 test samples
_________________________________________________________________
Layer (type)                 Output Shape              Param #   
=================================================================
input_1 (InputLayer)         (None, 32, 32, 3)         0         
_________________________________________________________________
conv2d_1 (Conv2D)            (None, 30, 30, 8)         224       
_________________________________________________________________
conv2d_2 (Conv2D)            (None, 28, 28, 8)         584       
_________________________________________________________________
conv2d_3 (Conv2D)            (None, 26, 26, 8)         584       
_________________________________________________________________
conv2d_4 (Conv2D)            (None, 24, 24, 8)         584       
_________________________________________________________________
conv2d_5 (Conv2D)            (None, 22, 22, 8)         584       
_________________________________________________________________
flatten_1 (Flatten)          (None, 3872)              0         
_________________________________________________________________
dense_1 (Dense)              (None, 16)                61968     
_________________________________________________________________
dense_2 (Dense)              (None, 10)                170       
=================================================================
Total params: 64,698
Trainable params: 64,698
Non-trainable params: 0
_________________________________________________________________
Starting final fitting
Epoch 1/50
 - 36s - loss: 2.3757 - categorical_accuracy: 0.1036 - val_loss: 2.3091 - val_categorical_accuracy: 0.1180
Epoch 2/50
 - 23s - loss: 2.3049 - categorical_accuracy: 0.1162 - val_loss: 2.3030 - val_categorical_accuracy: 0.1218
…
