…
2019-07-03 14:56:59.789214: I tensorflow/core/common_runtime/gpu/gpu_device.cc:984] 0:   N 
2019-07-03 14:56:59.789478: I tensorflow/core/common_runtime/gpu/gpu_device.cc:1097] Created TensorFlow device (/job:localhost/replica:0/task:0/device:GPU:0 with 7581 MB memory) -> physical GPU (device: 0, name: Tesla M60, pci bus id: 0000:86:00.0, compute capability: 5.2)
x_train shape: (50000, 32, 32, 3)
50000 train samples
5000 validation samples
5000 test samples
_________________________________________________________________
Layer (type)                 Output Shape              Param #   
=================================================================
input_1 (InputLayer)         (None, 32, 32, 3)         0         
_________________________________________________________________
conv2d_1 (Conv2D)            (None, 30, 30, 8)         224       
_________________________________________________________________
conv2d_2 (Conv2D)            (None, 28, 28, 8)         584       
_________________________________________________________________
conv2d_3 (Conv2D)            (None, 26, 26, 8)         584       
_________________________________________________________________
conv2d_4 (Conv2D)            (None, 24, 24, 8)         584       
_________________________________________________________________
conv2d_5 (Conv2D)            (None, 22, 22, 8)         584       
_________________________________________________________________
flatten_1 (Flatten)          (None, 3872)              0         
_________________________________________________________________
dense_1 (Dense)              (None, 16)                61968     
_________________________________________________________________
dense_2 (Dense)              (None, 10)                170       
=================================================================
Total params: 64,698
Trainable params: 64,698
Non-trainable params: 0
_________________________________________________________________
Starting final fitting
Epoch 1/50
 - 31s - loss: 2.2616 - categorical_accuracy: 0.1723 - val_loss: 2.2010 - val_categorical_accuracy: 0.1950
Epoch 2/50
 - 18s - loss: 2.1845 - categorical_accuracy: 0.1968 - val_loss: 2.1690 - val_categorical_accuracy: 0.2130
…
